logs/final/policy_net_final.pth (torch, 3987 bytes, 4 tensors)

layers.0.weight f4 [16, 24]
-0.05220412 0.33204538 -0.2270897 0.27107742 -0.11686888 0.36981857 -0.15344965 -0.4833212
-0.24265572 -0.12714335 -0.06783268 -0.12974712 0.30885148 -0.14288366 -0.116300255 0.22996704
0.15342349 0.5105932 -0.32468903 0.068650946 0.31634256 -0.24734387 0.47410518 0.39896798
0.29569685 -0.20352161 -0.02349788 -0.43480587 0.41160452 0.03748113 -0.42565256 0.43005037
0.1617819 0.22217417 0.25929904 0.33057386 -0.0009050369 -0.20819467 0.19353008 -0.43905067
0.07751095 0.4672948 0.23459518 -0.40429366 -0.12511182 -0.29983473 0.07512009 -0.16412067
-0.14356558 0.089237586 -0.11109357 -0.2319695 0.12442409 -0.061652523 0.3296243 0.08344285
-0.28891876 0.30916947 -0.0804032 -0.091322 0.49616328 -0.47391495 -0.24539618 0.08700015
-0.35001618 -0.194272 0.33911195 0.26032853 -0.22047861 0.27743375 -0.06677012 0.376494
0.6275761 0.27307525 -0.4646384 -0.011238539 0.18247536 0.047602415 0.6150514 -0.6866882
0.4800226 -0.15155038 0.61014384 -0.20642228 -0.09129296 -0.2933144 0.6692256 0.19213265
0.037643485 -0.49995422 -0.064761944 -0.35191935 0.19500415 0.0039219554 0.07876684 -0.8018842
0.045841336 -0.3373197 -0.5789331 0.37646326 0.26217774 0.06398564 0.51328164 0.17387436
0.39178333 0.43908605 -0.0027611454 -0.070696786 -0.09491442 0.10326697 -0.26996157 0.5687722
-0.12806983 -0.3025333 -0.20533775 -0.11950985 -0.5542197 -0.02861615 -0.2997938 -0.56788737
-0.4555288 -0.20796365 0.25016564 -0.0057270085 -0.17291263 0.5219871 -0.483599 0.23779263
-0.34252593 -0.19057068 -0.29091212 0.2499626 -0.51997435 -0.29167563 -0.4023212 -0.48731807
0.27952757 0.011012298 -0.24077451 0.030438494 -0.35449702 -0.36023712 -0.44382146 0.5446611
-0.48428023 -0.170811 0.017870665 -0.3018853 -0.38501143 0.40692997 0.47470444 -0.35294873
0.38764918 -0.38196856 -0.38197118 0.12623566 -0.03534299 -0.057531655 0.27213228 -0.12974524
0.39140803 -0.2612418 0.36960417 -0.44032133 -0.10271639 0.036734045 0.2292 -0.20191872
-0.42451566 -0.2272022 -0.36799943 -0.13311578 0.24205984 -0.07577103 0.014938153 0.44913974
-0.23690596 0.2767893 -0.46685964 0.08849617 0.39079836 0.091010146 0.47455978 -0.4518637
0.43138766 -0.24589975 -0.36133808 -0.43769842 0.13123329 0.29996806 -0.41210854 0.31641388
0.003373921 0.45918435 0.43276966 -0.3943404 0.26241022 0.1413374 -0.41502392 0.013174534
0.31288487 0.042791307 -0.36503732 -0.40218943 -0.04107219 -0.20264214 -0.49544972 0.44731534
0.19411862 0.27551323 -0.3552093 0.26918054 0.053471923 0.08674115 -0.20294172 -0.1287176
-0.39162225 0.05051878 -0.38941368 -0.288227 0.1488617 0.07938589 -0.23911121 0.33691707
-0.32857174 0.046419755 0.38257173 -0.013565834 -0.16075191 0.1660655 -0.39932904 -0.2741869
-0.20988312 -0.13441862 0.04139501 0.15611418 0.21077219 -0.3705507 0.19147582 -0.33283508
-0.15560651 -0.36385024 0.4565246 0.08835493 0.31256562 -0.27209446 0.089786164 0.48490927
0.37429073 0.44458994 -0.2595666 0.29823425 0.24459168 -0.17082135 0.41855404 -0.19389004
00000000: fdd3 55bd da01 aa3e 348a 68be a9ca 8a3e
00000010: f458 efbd dc58 bd3e e821 1dbe e075 f7be
00000020: be7a 78be de31 02be dceb 8abd 6edc 04be
00000030: c821 9e3e 1850 12be d42e eebd 7b7c 6b3e
00000040: 0c1b 1d3e 3cb6 023f a43d a6be de98 8c3d
00000050: a7f7 a13e b647 7dbe eabd f23e 8845 cc3e
00000060: 9465 973e f867 50be a07e c0bc e09e debe
00000070: d4bd d23e d085 193d 22ef d9be 902f dc3e
00000080: 28aa 253e a081 633e d8c2 843e fa40 a93e
00000090: 0040 6dba fc30 55be c02c 463e 40cb e0be
000000a0: 10be 9e3d 4441 ef3e b839 703e 94ff cebe
000000b0: 501d 00be f083 99be 90d8 993d 400f 28be
000000c0: db02 13be 32c2 b63d 0785 e3bd 6a89 6dbe
000000d0: 0fd2 fe3d 5b87 7cbd 84c4 a83e 16e4 aa3d
000000e0: 29ed 93be 764b 9e3e 6faa a4bd 0707 bbbd
000000f0: 1d09 fe3e fba4 f2be 2349 7bbe 222d b23d
00000100: 5235 b3be 3def 46be 15a0 ad3e c849 853e
00000110: 25c5 61be cc0b 8e3e c6be 88bd d2c3 c03e
00000120: d4a8 203f 85d0 8b3e 16e5 edbe d921 38bc
00000130: d2da 3a3e c0fa 423d 0274 1d3f ccca 2fbf
00000140: 86c5 f53e 0630 1bbe 6332 1c3f 5d60 53be
00000150: cef7 babd 4e2d 96be 5e52 2b3f 6cbe 443e
00000160: 0e30 1a3d 00fa ffbe e9a1 84bd c62e b4be
00000170: 2baf 473e bf83 803b 8250 a13d 4848 4dbf
00000180: 20c4 3b3d 2bb5 acbe f634 14bf cbbf c03e
00000190: 293c 863e e70a 833d 6d66 033f 1f0c 323e
000001a0: d397 c83e e3cf e03e 55f4 34bb 7ac9 90bd
000001b0: 7e62 c2bd a27d d33d 6738 8abe 0e9b 113f
000001c0: bd24 03be a5e5 9abe 0f44 52be 95c1 f4bd
000001d0: 58e1 0dbf 6b6c eabc 937e 99be 1161 11bf
000001e0: 123b e9be 6cf4 54be b615 803e a1a9 bbbb
000001f0: 0210 31be f2a0 053f 4a9a f7be e97f 733e
00000200: 8f5f afbe f624 43be 6ff2 94be 32f6 7f3e
00000210: 0a1d 05bf 8256 95be 0bfd cdbe c181 f9be
00000220: 3d1e 8f3e ed6c 343c 988d 76be 265a f93c
00000230: a280 b5be 0071 b8be 913c e3be e96e 0b3f
00000240: 94f3 f7be 14e9 2ebe 8065 923c b690 9abe
00000250: 3820 c5be 2059 d03e 760c f33e b2b5 b4be
00000260: f479 c63e 6291 c3be ba91 c3be ec43 013e
00000270: d0c3 10bd 50a6 6bbd ec54 8b3e f0db 04be
00000280: a266 c83e 7cc1 85be c23c bd3e cc71 e1be
00000290: f85c d2bd 7076 163d 68b3 6a3e c8c3 4ebe
000002a0: 1e5a d9be b2a7 68be 6c6a bcbe 814f 08be
000002b0: 89de 773e d72d 9bbd 28bf 743c a5f5 e53e
000002c0: 7a97 72be 54b7 8d3e 3a08 efbe 7b3d b53d
000002d0: b916 c83e 8763 ba3d 80f9 f23e ae5a e7be
000002e0: d8de dc3e 25cd 7bbe 4e01 b9be 021a e0be
000002f0: 0562 063e 6a95 993e e4ff d2be 0001 a23e
00000300: 001d 5d3b 361a eb3e fc93 dd3e fce6 c9be
00000310: a25a 863e c0ba 103e 047e d4be 00da 573c
00000320: 7232 a03e f045 2f3d 2ce6 babe c6eb cdbe
00000330: 503b 28bd 6c81 4fbe 96ab fdbe 8406 e53e
00000340: 08c7 463e 1210 8d3e fedd b5be 08d2 893e
00000350: 6005 5b3d 58a5 b13d f4cf 4fbe 8cce 03be
00000360: b682 c8be c8ec 4e3d 3b61 c7be 7d92 93be
00000370: 346f 183e 1295 a23d 92d9 74be 6580 ac3e
00000380: 8e3a a8be a422 3e3d 71e0 c33e 3b43 5ebc
00000390: 269c 24be 130d 2a3e db74 ccbe 3a62 8cbe
000003a0: 9aeb 56be 09a5 09be d08d 293d 65dc 1f3e
000003b0: aad4 573e d2b8 bdbe 3d12 443e 5c69 aabe
000003c0: 5057 1fbe 944a babe 98bd e93e 6ef3 b43d
000003d0: 9a08 a03e f74f 8bbe cfe1 b73d 0746 f83e
000003e0: 09a3 bf3e 4ba1 e33e eae5 84be 29b2 983e
000003f0: 3e76 7a3e cbeb 2ebe b74c d63e 1c8b 46be

layers.0.bias f4 [16]
0.049869113 -0.13168961 -0.14989397 0.3474177 -0.00065616565 -0.06652921 -0.19727622 -0.06766193
-0.084949136 -0.19918202 -0.08415667 -0.21530207 0.10994306 -0.12734348 0.49391758 -0.13395026
00000000: 8e43 4c3d a4d9 06be ce7d 19be bce0 b13e
00000010: 8802 2cba 7740 88bd c702 4abe 5792 8abd
00000020: d0f9 adbd 5ff6 4bbe 555a acbd 2578 5cbe
00000030: d429 e13d 5466 02be c4e2 fc3e 422a 09be

layers.2.weight f4 [8, 16]
0.12269763 0.26913017 0.4920193 -0.3779591 -0.5503654 0.8564911 0.5430615 0.31317097
0.55976665 0.7709793 0.7402786 0.16326855 -0.32890418 0.47981936 -0.80474263 0.86864996
0.025476066 0.56220824 0.21456034 -0.25642955 0.48069856 -0.09355556 0.77528423 0.010245945
-0.02782127 0.6452175 0.24589072 0.7292116 -0.458699 0.7222851 -0.48061356 0.42520452
-0.4502501 -0.2776791 -0.29706103 0.37338433 0.5802807 0.27706105 -0.12953937 -0.058708627
0.09565707 0.037725423 0.28056365 -0.2792452 0.501485 -0.50113666 -0.36823064 -0.5827776
-0.27568355 -0.8602561 -0.5023054 0.41326693 -0.13931866 -0.11169005 -0.70566344 -0.040426258
-0.13323802 -0.23183963 -0.46068785 -0.8241608 0.47583252 0.08031309 0.59626114 -0.018243486
0.0551983 -0.7856789 -0.13574062 0.26832902 0.17164624 -0.54508704 -0.7382372 0.0659276
-0.22831841 -0.8141944 -0.5835205 -0.3159923 -0.08129604 0.3517754 0.52964884 -0.018913997
0.1760238 -0.57688785 -0.45235217 0.3808587 -0.56123817 -0.4659778 -0.65435255 -0.6077825
-0.02178411 -0.5284722 -0.12285642 -0.50246465 -0.5660588 0.3123225 -0.4545903 0.20322396
-0.35420716 -0.73715645 -0.76428276 0.2054467 -0.59208333 0.055779543 -0.099085845 -0.56765026
-0.23185414 -0.8809313 0.16624528 -0.8377034 0.2892853 -0.6527049 0.812223 0.106863
0.27607322 -0.29323763 -0.5539166 -0.018853633 0.45414427 -0.44754273 0.5663737 -0.10640081
0.038280573 0.4405756 -0.40525883 0.19003578 -0.20704307 0.13335796 -0.44986418 -0.18613164
00000000: e548 fb3d 6ecb 893e f4e9 fb3e db83 c1be
00000010: bfe4 0cbf 0043 5b3f 1406 0b3f f257 a03e
00000020: de4c 0f3f e65e 453f e682 3d3f df2f 273e
00000030: 2166 a8be e2aa f53e 9d03 4ebf d85f 5e3f
00000040: 2fb3 d03c e1ec 0f3f b5b5 5b3e bc4a 83be
00000050: 1f1e f63e 0f9a bfbd 0779 463f 9cde 273c
00000060: 6fe9 e3bc f92c 253f c7ca 7b3e 9dad 3a3f
00000070: 98da eabe ade7 383f fb12 f6be 68b4 d93e
00000080: 2e87 e6be f42b 8ebe 6218 98be 3b2c bf3e
00000090: 478d 143f f2da 8d3e f8a5 04be 7578 70bd
000000a0: dbe7 c33d f985 1a3d 0aa6 8f3e 3af9 8ebe
000000b0: 5261 003f 7e4a 00bf ba88 bcbe ea30 15bf
000000c0: 6526 8dbe be39 5cbf 1697 00bf b997 d33e
000000d0: 8da9 0ebe c1bd e4bd 5ca6 34bf 0196 25bd
000000e0: 8c6f 08be 5e67 6dbe 47df ebbe 34fc 52bf
000000f0: 52a0 f33e 307b a43d 92a4 183f 5d73 95bc
00000100: 9d17 623d 4122 49bf 97ff 0abe 6c62 893e
00000110: 08c4 2f3e d38a 0bbf 1dfd 3cbf 0d05 873d
00000120: 4dcc 69be 0b6f 50bf 9961 15bf bec9 a1be
00000130: 8a7e a6bd e81b b43e 1197 073f 87f1 9abc
00000140: 953f 343e ecae 13bf b49a e7be e9ff c23e
00000150: 4ead 0fbf a494 eebe a683 27bf a297 1bbf
00000160: 9774 b2bc f449 07bf 269c fbbd 86a1 00bf
00000170: 3be9 10bf bce8 9f3e 0fc0 e8be f119 503e
00000180: a45a b5be 49b6 3cbf 09a8 43bf 9f60 523e
00000190: c692 17bf 1779 643d 85ed cabd 8751 11bf
000001a0: 2c6b 6dbe b784 61bf 343c 2a3e bb73 56bf
000001b0: 341d 943e ab17 27bf d9ed 4f3f fdda da3d
000001c0: 7859 8d3e 3e23 96be 7acd 0dbf ef72 9abc
000001d0: 9985 e83e 5224 e5be defd 103f abe8 d9bd
000001e0: 17cc 1c3d 2093 e13e 167e cfbe bd98 423e
000001f0: 1903 54be fd8e 083e 9954 e6be 4b99 3ebe

layers.2.bias f4 [8]
-0.38394374 -0.33555445 0.38013703 0.5560979 0.16338633 0.12426435 0.5318309 0.013889029
00000000: 4694 c4be cbcd abbe 52a1 c23e 6f5c 0e3f
00000010: bf4e 273e 4f7e fe3d 1226 083f cf8e 633c
