logs/final/value_net_final.pth (torch, 4051 bytes, 3 tensors)

layers.0.weight f4 [16, 32]
0	0x3e9544d7	0.29154083
1	0xbc98d8dd	-0.018658096
2	0xbd10e0c7	-0.035370614
3	0xbe46d43b	-0.19416897
4	0x3ea0c6b8	0.3140161
5	0xbed7769c	-0.4208268
6	0x3ec5ef75	0.38659254
7	0x3dcbe1ec	0.099552006
8	0x3ec73efa	0.38915235
9	0x3e1066c4	0.14101702
10	0x3e06dd30	0.13170314
11	0xbe5ddee4	-0.21667057
12	0xbe8e26aa	-0.27763873
13	0x3e5e7aee	0.21726581
14	0xbe59d85c	-0.21273941
15	0xbec438cb	-0.3832458
16	0x3da5dd7e	0.08098887
17	0xbddca298	-0.107732
18	0xbe500416	-0.20314059
19	0x3e05a142	0.13049796
20	0x3e6370fd	0.2221107
21	0x3e574409	0.21022047
22	0x3ec4dfe9	0.3845208
23	0xbe927c9e	-0.286107
24	0xbe57b46a	-0.21064916
25	0xbe7303ce	-0.2373192
26	0x3ebb8861	0.36627486
27	0x3e4c2973	0.19937687
28	0xbe672840	-0.22573948
29	0x3d9a5f48	0.07537705
30	0xbea1129a	-0.31459504
31	0xbeb48344	-0.35256398
32	0x3d71edea	0.059064783
33	0xbea8ef31	-0.3299499
34	0xbed48e01	-0.4151459
35	0x3e8aa1e0	0.27076626
36	0x3ea8a3cc	0.32937467
37	0x3dfc94a6	0.1233304
38	0x3df918dc	0.12162945
39	0xbd4007b7	-0.046882357
40	0x3ec5c546	0.3862707
41	0x3e36f6d6	0.17867598
42	0x3d6a7bcb	0.057246964
43	0xbea2bf16	-0.31786412
44	0x3df15c49	0.1178518
45	0xbe59a974	-0.21256047
46	0x3e5587dc	0.20852607
47	0x3ec35467	0.3815033
48	0x3e75d344	0.24006373
49	0xbda79b79	-0.08183951
50	0xbeae57ad	-0.34051266
51	0x3dedd1a4	0.116122514
52	0x3ece9a7c	0.40352237
53	0xbec925ba	-0.39286596
54	0x3e15b61a	0.14620247
55	0xbda9b2ad	-0.08286033
56	0xbe8e86d4	-0.2783724
57	0x3e16b31b	0.14716761
58	0xbeb697f7	-0.35662815
59	0xbeb664d6	-0.35623807
60	0xbda0a8a1	-0.078446634
61	0xbd4e7c91	-0.050411765
62	0xbdaa13ce	-0.08304559
63	0x3d7f3780	0.06230879
64	0x3e92c497	0.2866561
65	0x3e672b7d	0.22575183
66	0xbcd6b9a9	-0.026211577
67	0x3e8972d0	0.26845407
68	0xbe4b130f	-0.19831489
69	0xbeb8d1f5	-0.36097685
70	0xbe912b8b	-0.28353533
71	0x3e29c54b	0.16579168
72	0xbdd964c1	-0.106149204
73	0xbdf47bdf	-0.11937689
74	0xbd0abfc5	-0.033874292
75	0x3e9d9f86	0.3078577
76	0xbe6ba031	-0.23010327
77	0x3e897f5c	0.2685498
78	0x3b716eaa	0.0036839643
79	0x3d4dba1c	0.050226316
80	0xbdf1a46d	-0.1179894
81	0x3e3d8218	0.18506658
82	0xbd9db410	-0.0770036
83	0xbe1d4e88	-0.15361989
84	0xbddbddcc	-0.10735664
85	0xbecc808e	-0.3994183
86	0xbeb15bd4	-0.34640372
87	0xbe3e3741	-0.18575765
88	0xbd844a8b	-0.064595304
89	0xbde71920	-0.11284089
90	0xbdd15e54	-0.1022307
91	0xbe86ca8d	-0.2632641
92	0x3eafcfa2	0.343381
93	0xbea1cd0e	-0.31601757
94	0xbe8af6fa	-0.27141553
95	0xbd8accaf	-0.067773215
96	0x3ecc24b3	0.3987175
97	0xbeb07af6	-0.34468812
98	0xbea9340f	-0.3304753
99	0x3c1bf9ad	0.009519977
100	0x3e90cf37	0.28283092
101	0xbebde96f	-0.37092158
102	0x3e5bf02b	0.21478336
103	0x3e9a7443	0.30166826
104	0x3d8d7e04	0.06908801
105	0x3a3faea1	0.00073120935
106	0x3de99590	0.1140548
107	0x3e116f90	0.14202714
108	0xbeaffed2	-0.343741
109	0x3d7afed8	0.061278194
110	0xbc80f7a8	-0.015743092
111	0xbedba268	-0.42897344
112	0xbea73b50	-0.3266244
113	0xbeb21a48	-0.34785676
114	0xbe6941cf	-0.2277901
115	0xbeb8c326	-0.36086386
116	0xbe4310c7	-0.19049369
117	0x3e425e9e	0.18981406
118	0xbe36323f	-0.17792605
119	0x3e4e6882	0.20157054
120	0x3f011755	0.50426227
121	0x3e80694d	0.25080338
122	0xbe9d6e59	-0.3074825
123	0x3eaee6e7	0.3416054
124	0x3e23fa8c	0.16013545
125	0xbe1d251a	-0.15346184
126	0x3e99a6dd	0.3001012
127	0x3d4a654a	0.049413003
128	0xbe909f14	-0.28246367
129	0xbe0ee566	-0.13954696
130	0xbe0e4a84	-0.13895613
131	0xbe73c793	-0.238066
132	0xbe3d7f40	-0.18505573
133	0xbe41df28	-0.18932784
134	0xbec012cc	-0.3751434
135	0x3caab220	0.02083689
136	0x3e25bdea	0.16185728
137	0xbe6654a0	-0.2249322
138	0xbd4f5bc9	-0.050624643
139	0xbe7d1879	-0.24716367
140	0xbedd9b57	-0.43282577
141	0x3dc6a548	0.09699494
142	0xbe3db05f	-0.18524311
143	0xbd256502	-0.04037953
144	0x3e8f71f7	0.28016636
145	0xbe7e1fa7	-0.24816762
146	0xbc913755	-0.01772658
147	0xbda1f4a4	-0.079079896
148	0x3edba0a6	0.42896003
149	0x3e91db35	0.28487554
150	0xbe57f454	-0.21089298
151	0xbd624c2c	-0.055248424
152	0x3e0d007b	0.13769715
153	0x3ec10af2	0.37703663
154	0x3e19b24f	0.15009426
155	0x3e5d85ed	0.2163312
156	0x3de81119	0.11331386
157	0xbe7473fb	-0.23872368
158	0xbe099f7c	-0.13439745
159	0xbd681042	-0.05665613
160	0x3e96aba7	0.29427835
161	0xbccd38e7	-0.025051547
162	0x3ea7d909	0.32782772
163	0xbc7a3282	-0.015270831
164	0x3c580cd7	0.013186655
165	0xbe3d2273	-0.18470173
166	0x3d930174	0.071780115
167	0x3e3e1a0f	0.18564628
168	0x3ea89d95	0.32932726
169	0xbeef8378	-0.4677999
170	0xbec0ec4a	-0.37680274
171	0x3e90437c	0.28176486
172	0x3e27d479	0.16389646
173	0x3ed8ecf3	0.42368278
174	0xbe4b64b8	-0.1986264
175	0x3eb2d4b5	0.34927908
176	0xbed7917c	-0.42103183
177	0xbdc8c2d2	-0.09802784
178	0x3e299bc5	0.16563328
179	0x3de7077e	0.11280726
180	0xbea9d6c1	-0.33171657
181	0x3e9bc5e5	0.3042442
182	0xbc5b541e	-0.013386754
183	0xbc83c00e	-0.01608279
184	0x3daf2dc3	0.0855365
185	0xbeedd1e1	-0.46449187
186	0x3e8ab795	0.27093187
187	0x3ea63b26	0.32467002
188	0x3daafb7e	0.083487496
189	0xbe8cadd4	-0.2747637
190	0x3d903d73	0.070429705
191	0x3e181c4d	0.14854546
192	0xbe9c2b25	-0.30501667
193	0x3e3161ad	0.17322417
194	0xbe334bab	-0.17509334
195	0xbd486840	-0.048927546
196	0xbe882230	-0.26588583
197	0xbd675930	-0.05648154
198	0xbdd65be9	-0.10466749
199	0xbe9ba22c	-0.30397165
200	0xbc49d075	-0.012317766
201	0x3dce07bf	0.10060071
202	0x3ea1312d	0.3148283
203	0x3d61092c	0.054940388
204	0xbe847f54	-0.25878394
205	0x3e1a3b17	0.15061603
206	0xbdd89eb0	-0.10577142
207	0xbe597608	-0.21236432
208	0x3ecfb536	0.4056794
209	0x3ecc6d7c	0.3992728
210	0x3e62e166	0.22156295
211	0xbd674dc4	-0.056470647
212	0xbec5a1f4	-0.38600123
213	0x3e5746ac	0.21023053
214	0xbe6eb6b9	-0.2331189
215	0x3ed176be	0.40910906
216	0xbe9b4071	-0.30322602
217	0xbe772b21	-0.24137546
218	0x3e9f9f97	0.31176445
219	0x3e247888	0.16061604
220	0xbeeafc1a	-0.45895463
221	0x3e0f93a7	0.14021169
222	0xbc931d4f	-0.017958311
223	0x3e5a8f5d	0.21343751
224	0x3dbdf2f2	0.09274854
225	0xbde562e2	-0.11200501
226	0xbe17a092	-0.14807346
227	0x3e44256d	0.19154902
228	0xbedc41a4	-0.4301883
229	0xbe24122d	-0.16022559
230	0xbe209c0f	-0.15684532
231	0xbe2c4aff	-0.16825484
232	0x3e2d520e	0.16925833
233	0x3eba7fa1	0.36425498
234	0xbe72b886	-0.23703203
235	0x3e99ec40	0.30063057
236	0x3ea297bb	0.31756386
237	0x3c4a9d82	0.012366654
238	0xbd053b1c	-0.032527074
239	0xbea2e8c4	-0.3181821
240	0x3e6df915	0.23239549
241	0x3cdd4f2a	0.027015287
242	0xbe9f0b24	-0.31063187
243	0xbe178558	-0.1479696
244	0xbec52cef	-0.38510844
245	0xbc280588	-0.010255225
246	0x3eb01943	0.34394273
247	0xbe24d6b9	-0.16097535
248	0xbe261ed4	-0.16222697
249	0x3d8368dd	0.064164855
250	0x3de2d238	0.11075252
251	0xbed63540	-0.41837502
252	0xbe97bff0	-0.29638624
253	0x3ec7c2d2	0.39015824
254	0xbe1c6da3	-0.15276198
255	0xbda37e70	-0.079831004

layers.0.bias f4 [16]
0	0xbd9fe673	-0.078076266
1	0xbddebf6c	-0.108763546
2	0xbe5167e1	-0.20449783
3	0x3e222715	0.15835221
4	0xbd7753fa	-0.06038282
5	0xbe1c2a24	-0.1525045
6	0x3df5eceb	0.12008079
7	0x3df4a1f0	0.119449496
8	0x3e1f8561	0.15578224
9	0xbe11a298	-0.14222181
10	0x3d98b814	0.07456985
11	0x3e31eccd	0.17375489
12	0xbe3782f3	-0.17921047
13	0xbd548d52	-0.051892586
14	0x3da82602	0.082103744
15	0xbbd4b42d	-0.006491205

layers.2.weight f4 [1, 16]
0	0x3efbd54a	0.49186164
1	0x3f0dd2e6	0.5539993
2	0x3e5fb1ee	0.21845219
3	0x3efeaf09	0.49742916
4	0x3f12a9f2	0.57290566
5	0xbe9b6f2f	-0.30358264
6	0x3f00ed3c	0.5036199
7	0x3ec97a72	0.3935123
8	0x3f0149bd	0.5050314
9	0x3e3b11ce	0.1826851
10	0x3eb00fa3	0.3438693
11	0xbed7a6ac	-0.42119348
12	0x3ea68d02	0.32529455
13	0xbe8eb3e6	-0.27871627
14	0x3ed22e7b	0.41051087
15	0xbeea67c1	-0.45782283
